…
/localhost:8080/"},"id":"vmrkXZyrFjFn","executionInfo":{"status":"ok","timestamp":1704662781469,"user_tz":-330,"elapsed":14,"user":{"displayName":"Anjali Tulabandala","userId":"05479987577862315151"}},"outputId":"ac461b81-b03e-4805-cdbd-e3440c0538bd"},"execution_count":19,"outputs":[{"output_type":"stream","name":"stdout","text":["Model: \"sequential_2\"\n","_________________________________________________________________\n"," Layer (type)                Output Shape              Param #   \n","=================================================================\n"," sequential (Sequential)     (32, 256, 256, 3)         0         \n","                                                                 \n"," sequential_1 (Sequential)   (32, 256, 256, 3)         0         \n","                                                                 \n"," conv2d (Conv2D)             (32, 254, 254, 32)        896       \n","                                                                 \n"," max_pooling2d (MaxPooling2  (32, 127, 127, 32)        0         \n"," D)                                                              \n","                                                                 \n"," conv2d_1 (Conv2D)           (32, 125, 125, 64)        18496     \n","                                                                 \n"," max_pooling2d_1 (MaxPoolin  (32, 62, 62, 64)          0         \n"," g2D)                                                            \n","                                                                 \n"," conv2d_2 (Conv2D)           (32, 60, 60, 64)          36928     \n","                                                                 \n"," max_pooling2d_2 (MaxPoolin  (32, 30, 30, 64)          0         \n"," g2D)                                                            \n","                                                                 \n"," conv2d_3 (Conv2D)           (32, 28, 28, 64)          36928     \n","                                                                 \n"," max_pooling2d_3 (MaxPoolin  (32, 14, 14, 64)          0         \n"," g2D)                                                            \n","                                                                 \n"," conv2d_4 (Conv2D)           (32, 12, 12, 64)          36928     \n","                                                                 \n"," max_pooling2d_4 (MaxPoolin  (32, 6, 6, 64)            0         \n"," g2D)                                                            \n","                                                                 \n"," conv2d_5 (Conv2D)           (32, 4, 4, 64)            36928     \n","                                                                 \n"," max_pooling2d_5 (MaxPoolin  (32, 2, 2, 64)            0         \n"," g2D)                                                            \n","                                                                 \n"," flatten (Flatten)           (32, 256)                 0         \n","                                                                 \n"," dense (Dense)               (32, 64)                  16448     \n","                                                                 \n"," dense_1 (Dense)             (32, 3)                   195       \n","                                                                 \n","=================================================================\n","Total params: 183747 (717.76 KB)\n","Trainable params: 183747 (717.76 KB)\n","Non-trainable params: 0 (0.00 Byte)\n","_________________________________________________________________\n"]}]},{"cell_type":"code","source":["model.compile(\n","    opt
…
